…
atency', 'this_dir': 'latency', 'root_dir': '/home/al2u18/dpl/FasterSeg', 'num_classes': 19, 'layers': 16, 'mode': 'teacher', 'arch_idx': [0], 'branch': [2], 'width_mult_list': [0.3333333333333333, 0.5, 0.6666666666666666, 0.8333333333333334, 1.0], 'stem_head_width': [(1, 1)], 'load_path': 'fasterseg', 'load_epoch': 'last', 'Fch': 12, 'image_height': 1024, 'image_width': 2048, 'save': 'latency-1024x2048_teacher-20220513-122412'}
2022-05-13 12:24:19,496 net: Network_Multi_Path_Infer(
  (_criterion): CrossEntropyLoss()
  (stem): Sequential(
    (0): ConvNorm(
      (conv): Sequential(
        (0): Conv2d(3, 48, kernel_size=(3, 3), stride=(2, 2), padding=(1, 1), bias=False)
        (1): BatchNorm2d(48, eps=1e-05, momentum=0.1, affine=True, track_running_stats=True)
        (2): ReLU(inplace=True)
      )
    )
    (1): BasicResidual2x(
      (relu): ReLU(inplace=True)
      (conv1): Conv2d(48, 96, kernel_size=(3, 3), stride=(2, 2), padding=(1, 1), bias=False)
      (bn1): BatchNorm2d(96, eps=1e-05, momentum=0.1, affine=True, track_running_stats=True)
      (conv2): Conv2d(96, 96, kernel_size=(3, 3), stride=(1, 1), padding=(1, 1), bias=False)
      (bn2): BatchNorm2d(96, eps=1e-05, momentum=0.1, affine=True, track_running_stats=True)
    )
    (2): BasicResidual2x(
      (relu): ReLU(inplace=True)
      (conv1): Conv2d(96, 96, kernel_size=(3, 3), stride=(2, 2), padding=(1, 1), bias=False)
      (bn1): BatchNorm2d(96, eps=1e-05, momentum=0.1, affine=True, track_running_stats=True)
      (conv2): Conv2d(96, 96, kernel_size=(3, 3), stride=(1, 1), padding=(1, 1), bias=False)
      (bn2): BatchNorm2d(96, eps=1e-05, momentum=0.1, affine=True, track_running_stats=True)
    )
  )
  (cells): ModuleDict(
    (0-0): Cell(
      (_op): MixedOp(
        (_op): BasicResidual_downup_1x(
          (relu): ReLU(inplace=True)
          (conv1): Conv2d(96, 96, kernel_size=(3, 3), stride=(1, 1), padding=(1, 1), bias=False)
          (bn1): BatchNorm2d(96, eps=1e-05, momentum=0.1, affine=True, track_running_stats=True)
        )
      )
    )
    (0-1): Cell(
      (_op): MixedOp(
        (_op): BasicResidual_downup_1x(
          (relu): ReLU(inplace=True)
          (conv1): Conv2d(96, 96, kernel_size=(3, 3), stride=(1, 1), padding=(1, 1), bias=False)
          (bn1): BatchNorm2d(96, eps=1e-05, momentum=0.1, affine=True, track_running_stats=True)
        )
      )
    )
    (1-0): Cell(
      (_op): MixedOp(
        (_op): BasicResidual_downup_2x(
          (relu): ReLU(inplace=True)
          (conv1): Conv2d(96, 96, kernel_size=(3, 3), stride=(1, 1), padding=(1, 1), bias=False)
          (bn1): BatchNorm2d(96, eps=1e-05, momentum=0.1, affine=True, track_running_stats=True)
          (conv2): Conv2d(96, 96, kernel_size=(3, 3), stride=(1, 1), padding=(1, 1), bias=False)
          (bn2): BatchNorm2d(96, eps=1e-05, momentum=0.1, affine=True, track_running_stats=True)
        )
      )
    )
    (1-1): Cell(
      (_op): MixedOp(
        (_op): BasicResidual_downup_2x(
          (relu): ReLU(inplace=True)
          (conv1): Conv2d(96, 96, kernel_size=(3, 3), stride=(1, 1), padding=(1, 1), bias=False)
          (bn1): BatchNorm2d(96, eps=1e-05, momentum=0.1, affine=True, track_running_stats=True)
          (conv2): Conv2d(96, 96, kernel_size=(3, 3), stride=(1, 1), padding=(1, 1), bias=False)
          (bn2): BatchNorm2d(96, eps=1e-05, momentum=0.1, affine=True, track_running_stats=True)
        )
      )
    )
    (2-0): Cell(
      (_op): MixedOp(
        (_op): BasicResidual_downup_2x(
          (relu): ReLU(inplace=True)
          (conv1): Conv2d(96, 96, kernel_size=(3, 3), stride=(1, 1), padding=(1, 1), bias=False)
          (bn1): BatchNorm2d(96, eps=1e-05, momentum=0.1, affine=True, track_running_stats=True)
          (conv2): Conv2d(96, 96, kernel_size=(3, 3), stride=(1, 1), padding=(1, 1), bias=False)
          (bn2): BatchNorm2d(96, eps=1e-05, momentum=0.1, affine=True, track_running_stats=True)
        )
      )
    )
    (2-1): Cell(
      (_op): MixedOp(
        (_op): BasicResidual_downup_2x(
          (relu): ReLU(inplace=True)
          (conv1): Conv2d(96, 96, kernel_size=(3, 3), stride=(1, 1), padding=(1, 1), bias=False)
          (bn1): BatchNorm2d(96, eps=1e-05, momentum=0.1, affine=True, track_running_stats=True)
          (conv2): Conv2d(96, 96, kernel_size=(3, 3), stride=(1, 1), padding=(1, 1), bias=False)
          (bn2): BatchNorm2d(96, eps=1e-05, momentum=0.1, affine=True, track_running_stats=True)
        )
      )
    )
    (3-0): Cell(
      (_op): MixedOp(
        (_op): BasicResidual_downup_2x(
          (relu): ReLU(inplace=True)
          (conv1): Conv2d(96, 96, kernel_size=(3, 3), stride=(1, 1), padding=(1, 1), bias=False)
          (bn1): BatchNorm2d(96, eps=1e-05, momentum=0.1, affine=True, track_running_stats=True)
          (conv2): Conv2d(96, 96, kernel_size=(3, 3), stride=(1, 1), padding=(1, 1), bias=False)
          (bn2): BatchNorm2d(96, eps=1e-05, momentum=0.1, affine=True, track_running_stats=True)
        )
      )
    )
    (3-1): Cell(
      (_op): MixedOp(
        (_op): BasicResidual_downup_2x(
          (relu): ReLU(inplace=True)
          (conv1): Conv2d(96, 96, kernel_size=(3, 3), stride=(1, 1), padding=(1, 1), bias=False)
          (bn1): BatchNorm2d(96, eps=1e-05, momentum=0.1, affine=True, track_running_stats=True)
          (conv2): Conv2d(96, 96, kernel_size=(3, 3), stride=(1, 1), padding=(1, 1), bias=False)
          (bn2): BatchNorm2d(96, eps=1e-05, momentum=0.1, affine=True, track_running_stats=True)
        )
      )
    )
    (4-0): Cell(
      (_op): MixedOp(
        (_op): BasicResidual_downup_2x(
          (relu): ReLU(inplace=True)
          (conv1): Conv2d(96, 96, kernel_size=(3, 3), stride=(1, 1), padding=(1, 1), bias=False)
          (bn1): BatchNorm2d(96, eps=1e-05, momentum=0.1, affine=True, track_running_stats=True)
          (conv2): Conv2d(96, 96, kernel_size=(3, 3), stride=(1, 1), padding=(1, 1), bias=False)
          (bn2): BatchNorm2d(96, eps=1e-05, momentum=0.1, affine=True, track_running_stats=True)
        )
      )
    )
    (4-1): Cell(
      (_op): MixedOp(
        (_op): BasicResidual_downup_2x(
          (relu): ReLU(inplace=True)
          (conv1): Conv2d(96, 192, kernel_size=(3, 3), stride=(1, 1), padding=(1, 1), bias=False)
          (bn1): BatchNorm2d(192, eps=1e-05, momentum=0.1, affine=True, track_running_stats=True)
          (conv2): Conv2d(192, 192, kernel_size=(3, 3), stride=(1, 1), padding=(1, 1), bias=False)
          (bn2): BatchNorm2d(192, eps=1e-05, momentum=0.1, affine=True, track_running_stats=True)
        )
      )
    )
    (5-0): Cell(
      (_op): MixedOp(
        (_op): BasicResidual_downup_2x(
          (relu): ReLU(inplace=True)
          (conv1): Conv2d(96, 192, kernel_size=(3, 3), stride=(1, 1), padding=(1, 1), bias=False)
          (bn1): BatchNorm2d(192, eps=1e-05, momentum=0.1, affine=True, track_running_stats=True)
          (conv2): Conv2d(192, 192, kernel_size=(3, 3), stride=(1, 1), padding=(1, 1), bias=False)
          (bn2): BatchNorm2d(192, eps=1e-05, momentum=0.1, affine=True, track_running_stats=True)
        )
      )
    )
    (5-1): Cell(
      (_op): MixedOp(
        (_op): BasicResidual2x(
          (relu): ReLU(inplace=True)
          (conv1): Conv2d(192, 192, kernel_size=(3, 3), stride=(1, 1), padding=(1, 1), bias=False)
          (bn1): BatchNorm2d(192, eps=1e-05, momentum=0.1, affine=True, track_running_stats=True)
          (conv2): Conv2d(192, 192, kernel_size=(3, 3), stride=(1, 1), padding=(1, 1), bias=False)
          (bn2): BatchNorm2d(192, eps=1e-05, momentum=0.1, affine=True, track_running_stats=True)
        )
      )
    )
    (6-0): Cell(
      (_op): MixedOp(
        (_op): BasicResidual_downup_2x(
          (relu): ReLU(inplace=True)
          (conv1): Conv2d(192, 192, kernel_size=(3, 3), stride=(1, 1), padding=(1, 1), bias=False)
          (bn1): BatchNorm2d(192, eps=1e-05, momentum=0.1, affine=True, track_running_stats=True)
          (conv2): Conv2d(192, 192, kernel_size=(3, 3), stride=(1, 1), padding=(1, 1), bias=False)
          (bn2): BatchNorm2d(192, eps=1e-05, momentum=0.1, affine=True, track_running_stats=True)
        )
      )
    )
    (6-1): Cell(
      (_op): MixedOp(
        (_op): BasicResidual_downup_2x(
          (relu): ReLU(inplace=True)
          (conv1): Conv2d(192, 192, kernel_size=(3, 3), stride=(1, 1), padding=(1, 1), bias=False)
          (bn1): BatchNorm2d(192, eps=1e-05, momentum=0.1, affine=True, track_running_stats=True)
          (conv2): Conv2d(192, 192, kernel_size=(3, 3), stride=(1, 1), padding=(1, 1), bias=False)
          (bn2): BatchNorm2d(192, eps=1e-05, momentum=0.1, affine=True, track_running_stats=True)
        )
      )
    )
    (7-0): Cell(
      (_op): MixedOp(
        (_op): BasicResidual_downup_1x(
          (relu): ReLU(inplace=True)
          (conv1): Conv2d(192, 192, kernel_size=(3, 3), stride=(1, 1), padding=(1, 1), bias=False)
          (bn1): BatchNorm2d(192, eps=1e-05, momentum=0.1, affine=True, track_running_stats=True)
        )
      )
    )
    (7-1): Cell(
      (_op): MixedOp(
        (_op): BasicResidual_downup_1x(
          (relu): ReLU(inplace=True)
          (conv1): Conv2d(192, 192, kernel_size=(3, 3), stride=(1, 1), padding=(1, 1), bias=False)
          (bn1): BatchNorm2d(192, eps=1e-05, momentum=0.1, affine=True, track_running_stats=True)
        )
      )
    )
    (8-0): Cell(
      (_op): MixedOp(
        (_op): BasicResidual_downup_2x(
          (relu): ReLU(inplace=True)
          (conv1): Conv2d(192, 192, kernel_size=(3, 3), stride=(1, 1), padding=(1, 1), bias=False)
          (bn1): BatchNorm2d(192, eps=1e-05, momentum=0.1, affine=True, track_running_stats=True)
          (conv2): Conv2d(192, 192, kernel_size=(3, 3), stride=(1, 1), padding=(1, 1), bias=False)
          (bn2): BatchNorm2d(192, eps=1e-05, momentum=0.1, affine=True, track_running_stats=True)
        )
      )
    )
    (8-1): Cell(
      (_op): MixedOp(
        (_op): BasicResidual_downup_2x(
          (relu): ReLU(inplace=True)
          (conv1): Conv2d(192, 192, kernel_size=(3, 3), stride=(1, 1), padding=(1, 1), bias=False)
          (bn1): BatchNorm2d(192, eps=1e-05, momentum=0.1, affine=True, track_running_stats=True)
          (conv2): Conv2d(192, 192, kernel_size=(3, 3), stride=(1, 1), padding=(1, 1), bias=False)
          (bn2): BatchNorm2d(192, eps=1e-05, momentum=0.1, affine=True, track_running_stats=True)
        )
      )
    )
    (9-0): Cell(
      (_op): MixedOp(
        (_op): BasicResidual_downup_2x(
          (relu): ReLU(inplace=True)
          (conv1): Conv2d(192, 192, kernel_size=(3, 3), stride=(1, 1), padding=(1, 1), bias=False)
          (bn1): BatchNorm2d(192, eps=1e-05, momentum=0.1, affine=True, track_running_stats=True)
          (conv2): Conv2d(192, 192, kernel_size=(3, 3), stride=(1, 1), padding=(1, 1), bias=False)
          (bn2): BatchNorm2d(192, eps=1e-05, momentum=0.1, affine=True, track_running_stats=True)
        )
      )
    )
    (9-1): Cell(
      (_op): MixedOp(
        (_op): BasicResidual_downup_2x(
          (relu): ReLU(inplace=True)
          (conv1): Conv2d(192, 192, kernel_size=(3, 3), stride=(1, 1), padding=(1, 1), bias=False)
          (bn1): BatchNorm2d(192, eps=1e-05, momentum=0.1, affine=True, track_running_stats=True)
          (conv2): Conv2d(192, 192, kernel_size=(3, 3), stride=(1, 1), padding=(1, 1), bias=False)
          (bn2): BatchNorm2d(192, eps=1e-05, momentum=0.1, affine=True, track_running_stats=True)
        )
      )
    )
    (10-0): Cell(
      (_op): MixedOp(
        (_op): BasicResidual_downup_2x(
          (relu): ReLU(inplace=True)
          (conv1): Conv2d(192, 192, kernel_size=(3, 3), stride=(1, 1), padding=(1, 1), bias=False)
          (bn1): BatchNorm2d(192, eps=1e-05, momentum=0.1, affine=True, track_running_stats=True)
          (conv2): Conv2d(192, 192, kernel_size=(3, 3), stride=(1, 1), padding=(1, 1), bias=False)
          (bn2): BatchNorm2d(192, eps=1e-05, momentum=0.1, affine=True, track_running_stats=True)
        )
      )
    )
    (10-1): Cell(
      (_op): MixedOp(
        (_op): BasicResidual_downup_2x(
          (relu): ReLU(inplace=True)
          (conv1): Conv2d(192, 192, kernel_size=(3, 3), stride=(1, 1), padding=(1, 1), bias=False)
          (bn1): BatchNorm2d(192, eps=1e-05, momentum=0.1, affine=True, track_running_stats=True)
          (conv2): Conv2d(192, 192, kernel_size=(3, 3), stride=(1, 1), padding=(1, 1), bias=False)
          (bn2): BatchNorm2d(192, eps=1e-05, momentum=0.1, affine=True, track_running_stats=True)
        )
      )
    )
    (11-0): Cell(
      (_op): MixedOp(
        (_op): BasicResidual_downup_2x(
          (relu): ReLU(inplace=True)
          (conv1): Conv2d(192, 192, kernel_size=(3, 3), stride=(1, 1), padding=(1, 1), bias=False)
          (bn1): BatchNorm2d(192, eps=1e-05, momentum=0.1, affine=True, track_running_stats=True)
          (conv2): Conv2d(192, 192, kernel_size=(3, 3), stride=(1, 1), padding=(1, 1), bias=False)
          (bn2): BatchNorm2d(192, eps=1e-05, momentum=0.1, affine=True, track_running_stats=True)
        )
      )
    )
    (11-1): Cell(
      (_op): MixedOp(
        (_op): BasicResidual_downup_2x(
          (relu): ReLU(inplace=True)
          (conv1): Conv2d(192, 192, kernel_size=(3, 3), stride=(1, 1), padding=(1, 1), bias=False)
          (bn1): BatchNorm2d(192, eps=1e-05, momentum=0.1, affine=True, track_running_stats=True)
          (conv2): Conv2d(192, 192, kernel_size=(3, 3), stride=(1, 1), padding=(1, 1), bias=False)
          (bn2): BatchNorm2d(192, eps=1e-05, momentum=0.1, affine=True, track_running_stats=True)
        )
      )
    )
    (12-0): Cell(
      (_op): MixedOp(
        (_op): BasicResidual_downup_2x(
          (relu): ReLU(inplace=True)
          (conv1): Conv2d(192, 192, kernel_size=(3, 3), stride=(1, 1), padding=(1, 1), bias=False)
          (bn1): BatchNorm2d(192, eps=1e-05, momentum=0.1, affine=True, track_running_stats=True)
          (conv2): Conv2d(192, 192, kernel_size=(3, 3), stride=(1, 1), padding=(1, 1), bias=False)
          (bn2): BatchNorm2d(192, eps=1e-05, momentum=0.1, affine=True, track_running_stats=True)
        )
      )
    )
    (12-1): Cell(
      (_op): MixedOp(
        (_op): BasicResidual_downup_2x(
          (relu): ReLU(inplace=True)
          (conv1): Conv2d(192, 192, kernel_size=(3, 3), stride=(1, 1), padding=(1, 1), bias=False)
          (bn1): BatchNorm2d(192, eps=1e-05, momentum=0.1, affine=True, track_running_stats=True)
          (conv2): Conv2d(192, 192, kernel_size=(3, 3), stride=(1, 1), padding=(1, 1), bias=False)
          (bn2): BatchNorm2d(192, eps=1e-05, momentum=0.1, affine=True, track_running_stats=True)
        )
      )
    )
    (13-0): Cell(
      (_op): MixedOp(
        (_op): BasicResidual_downup_2x(
          (relu): ReLU(inplace=True)
          (conv1): Conv2d(192, 384, kernel_size=(3, 3), stride=(1, 1), padding=(1, 1), bias=False)
          (bn1): BatchNorm2d(384, eps=1e-05, momentum=0.1, affine=True, track_running_stats=True)
          (conv2): Conv2d(384, 384, kernel_size=(3, 3), stride=(1, 1), padding=(1, 1), bias=False)
          (bn2): BatchNorm2d(384, eps=1e-05, momentum=0.1, affine=True, track_running_stats=True)
        )
      )
    )
    (13-1): Cell(
      (_op): MixedOp(
        (_op): BasicResidual_downup_2x(
          (relu): ReLU(inplace=True)
          (conv1): Conv2d(192, 192, kernel_size=(3, 3), stride=(1, 1), padding=(1, 1), bias=False)
          (bn1): BatchNorm2d(192, eps=1e-05, momentum=0.1, affine=True, track_running_stats=True)
          (conv2): Conv2d(192, 192, kernel_size=(3, 3), stride=(1, 1), padding=(1, 1), bias=False)
          (bn2): BatchNorm2d(192, eps=1e-05, momentum=0.1, affine=True, track_running_stats=True)
        )
      )
    )
    (14-0): Cell(
      (_op): MixedOp(
        (_op): BasicResidual2x(
          (relu): ReLU(inplace=True)
          (conv1): Conv2d(384, 384, kernel_size=(3, 3), stride=(1, 1), padding=(1, 1), bias=False)
          (bn1): BatchNorm2d(384, eps=1e-05, momentum=0.1, affine=True, track_running_stats=True)
          (conv2): Conv2d(384, 384, kernel_size=(3, 3), stride=(1, 1), padding=(1, 1), bias=False)
          (bn2): BatchNorm2d(384, eps=1e-05, momentum=0.1, affine=True, track_running_stats=True)
        )
      )
    )
    (14-1): Cell(
      (_op): MixedOp(
        (_op): BasicResidual_downup_2x(
          (relu): ReLU(inplace=True)
          (conv1): Conv2d(192, 192, kernel_size=(3, 3), stride=(1, 1), padding=(1, 1), bias=False)
          (bn1): BatchNorm2d(192, eps=1e-05, momentum=0.1, affine=True, track_running_stats=True)
          (conv2): Conv2d(192, 192, kernel_size=(3, 3), stride=(1, 1), padding=(1, 1), bias=False)
          (bn2): BatchNorm2d(192, eps=1e-05, momentum=0.1, affine=True, track_running_stats=True)
        )
      )
    )
    (15-0): Cell(
      (_op): MixedOp(
        (_op): BasicResidual2x(
          (relu): ReLU(inplace=True)
          (conv1): Conv2d(384, 384, kernel_size=(3, 3), stride=(1, 1), padding=(1, 1), bias=False)
          (bn1): BatchNorm2d(384, eps=1e-05, momentum=0.1, affine=True, track_running_stats=True)
          (conv2): Conv2d(384, 384, kernel_size=(3, 3), stride=(1, 1), padding=(1, 1), bias=False)
          (bn2): BatchNorm2d(384, eps=1e-05, momentum=0.1, affine=True, track_running_stats=True)
        )
      )
    )
    (15-1): Cell(
      (_op): MixedOp(
        (_op): BasicResidual_downup_2x(
          (relu): ReLU(inplace=True)
          (conv1): Conv2d(192, 192, kernel_size=(3, 3), stride=(1, 1), padding=(1, 1), bias=False)
          (bn1): BatchNorm2d(192, eps=1e-05, momentum=0.1, affine=True, track_running_stats=True)
          (conv2): Conv2d(192, 192, kernel_size=(3, 3), stride=(1, 1), padding=(1, 1), bias=False)
          (bn2): BatchNorm2d(192, eps=1e-05, momentum=0.1, affine=True, track_running_stats=True)
        )
      )
    )
  )
  (heads32): Head(
    (conv_3x3): ConvBnRelu(
      (conv): Conv2d(384, 192, kernel_size=(3, 3), stride=(1, 1), padding=(1, 1), bias=False)
      (bn): BatchNorm2d(192, eps=1e-05, momentum=0.1, affine=True, track_running_stats=True)
      (relu): ReLU(inplace=True)
    )
    (conv_1x1): Conv2d(192, 19, kernel_size=(1, 1), stride=(1, 1))
  )
  (heads16): Head(
    (conv_3x3): ConvBnRelu(
      (conv): Conv2d(384, 192, kernel_size=(3, 3), stride=(1, 1), padding=(1, 1), bias=False)
      (bn): BatchNorm2d(192, eps=1e-05, momentum=0.1, affine=True, track_running_stats=True)
      (relu): ReLU(inplace=True)
    )
    (conv_1x1): Conv2d(192, 19, kernel_size=(1, 1), stride=(1, 1))
  )
  (heads8): Head(
    (conv_3x3): ConvBnRelu(
      (conv): Conv2d(192, 192, kernel_size=(3, 3), stride=(1, 1), padding=(1, 1), bias=False)
      (bn): BatchNorm2d(192, eps=1e-05, momentum=0.1, affine=True, track_running_stats=True)
      (relu): ReLU(inplace=True)
    )
    (conv_1x1): Conv2d(192, 19, kernel_size=(1, 1), stride=(1, 1))
  )
  (arms32): ModuleList(
    (0): ConvNorm(
      (conv): Sequential(
        (0): Conv2d(384, 192, kernel_size=(1, 1), stride=(1, 1), bias=False)
        (1): BatchNorm2d(192, eps=1e-05, momentum=0.1, affine=True, track_running_stats=True)
        (2): ReLU(inplace=True)
      )
    )
    (1): ConvNorm(
      (conv): Sequential(
        (0): Conv2d(192, 96, kernel_size=(1, 1), stride=(1, 1), bias=False)
        (1): BatchNorm2d(96, eps=1e-05, momentum=0.1, affine=True, track_running_stats=True)
        (2): ReLU(inplace=True)
      )
    )
  )
  (refines32): ModuleList(
    (0): ConvNorm(
      (conv): Sequential(
        (0): Conv2d(384, 192, kernel_size=(3, 3), stride=(1, 1), padding=(1, 1), bias=False)
        (1): BatchNorm2d(192, eps=1e-05, momentum=0.1, affine=True, track_running_stats=True)
        (2): ReLU(inplace=True)
      )
    )
    (1): ConvNorm(
      (conv): Sequential(
        (0): Conv2d(192, 96, kernel_size=(3, 3), stride=(1, 1), padding=(1, 1), bias=False)
        (1): BatchNorm2d(96, eps=1e-05, momentum=0.1, affine=True, track_running_stats=True)
        (2): ReLU(inplace=True)
      )
    )
  )
  (arms16): ConvNorm(
    (conv): Sequential(
      (0): Conv2d(192, 96, kernel_size=(1, 1), stride=(1, 1), bias=False)
      (1): BatchNorm2d(96, eps=1e-05, momentum=0.1, affine=True, track_running_stats=True)
      (2): ReLU(inplace=True)
    )
  )
  (refines16): ConvNorm(
    (conv): Sequential(
      (0): Conv2d(192, 96, kernel_size=(3, 3), stride=(1, 1), padding=(1, 1), bias=False)
      (1): BatchNorm2d(96, eps=1e-05, momentum=0.1, affine=True, track_running_stats=True)
      (2): ReLU(inplace=True)
    )
  )
  (ffm): FeatureFusion(
    (conv_1x1): ConvBnRelu(
      (conv): Conv2d(192, 192, kernel_size=(1, 1), stride=(1, 1), bias=False)
      (bn): BatchNorm2d(192, eps=1e-05, momentum=0.1, affine=True, track_running_stats=True)
      (relu): ReLU(inplace=True)
    )
    (channel_attention): Sequential(
      (0): AdaptiveAvgPool2d(output_size=1)
      (1): ConvBnRelu(
        (conv): Conv2d(192, 192, kernel_size=(1, 1), stride=(1, 1), bias=False)
        (relu): ReLU(inplace=True)
      )
      (2): ConvBnRelu(
        (conv): Conv2d(192, 192, kernel_size=(1, 1), stride=(1, 1), bias=False)
      )
      (3): Sigmoid()
    )
  )
)
2022-05-13 12:24:23,152 params = 23.524140MB, FLOPs = 108.005261GB
2022-05-13 12:24:23,158 ops:[[tensor(2, device='cuda:0'), tensor(4, device='cuda:0'), tensor(4, device='cuda:0'), tensor(4, device='cuda:0'), tensor(4, device='cuda:0'), tensor(4, device='cuda:0'), tensor(4, device='cuda:0'), tensor(2,
…
